model/mnist_model.pth (torch, 335823 bytes, 8 tensors)

fc1.weight f4 [86, 784]
000000 b3 5b 07 3d a3 23 97 bc 13 8b 93 bc b0 8f 1c 3c
       0.033046436 -0.01844961 -0.018010652 0.009555742
000010 23 79 df bc 94 98 00 bd 8a 88 d8 3c eb ec 03 3d
       -0.027279442 -0.03139551 0.026432294 0.032208364
000020 40 fa 27 3c f2 05 e1 3c 4a a3 d1 3c 9c f5 bb bc
       0.010252535 0.027468655 0.025590558 -0.022944264
000030 1d de 11 3d 16 48 ad 3d 97 43 1c 3d 90 38 3c 3c
       0.035612214 0.08461015 0.038150396 0.011488095
000040 b7 4a 0b 3d 38 1b d8 3b 27 32 81 bc c0 d6 1e 3c
       0.0340068 0.0065950416 -0.015770985 0.009694755
000050 80 28 60 3b ae 97 a0 bc 80 9b 95 3c 58 0d 88 bb
       0.0034203827 -0.019603577 0.018262625 -0.0041519813
000060 7c 50 f1 bc ce c4 cd 3c 1e cb bb bc e6 be 7d bc
       -0.029457323 0.025118258 -0.022924002 -0.015487408
000070 14 e0 85 3c 60 d6 0a 3b 84 b9 0c bd 1c 03 d2 bc
       0.0163422 0.0021184906 -0.03435661 -0.025636248
000080 37 e4 de bc 1c 6e e7 bc 3f 2e 1c be a9 fe e5 bd
       -0.02720843 -0.028250746 -0.15252016 -0.11230213
000090 fa 0e 4b 3d 15 fd 0d 3e 1a 68 41 3e c7 b7 db 3d
       0.04957483 0.13866074 0.18887368 0.10728412
0000a0 43 a9 2d 3d af 75 2e 3e f0 df a0 3e 37 e3 0f be
       0.04239775 0.1703708 0.3142085 -0.1405152
0000b0 e8 ce 3e be 36 7a f6 bd dc c7 94 3e 9f d7 13 bd
       -0.18633616 -0.12035029 0.2905873 -0.036094304
0000c0 c4 04 ca bd 38 00 24 be ab 95 f3 bd 17 81 e4 bd
       -0.0986419 -0.16015708 -0.11893781 -0.111574344
0000d0 18 b0 1c bc 7e 25 08 bd f6 01 de 3c b5 e5 a0 bc
       -0.009563468 -0.03323888 0.027100544 -0.019640783
0000e0 dc 8f eb bc 40 65 c9 3a aa 30 45 3c 7f bf d4 bd
       -0.028755121 0.0015365258 0.012035528 -0.103880875
0000f0 2d 7c d9 bd bc 23 b7 3d 2e 4d 9d bd e2 0e 57 be
       -0.10619388 0.08942363 -0.076807365 -0.21001771
000100 aa f1 93 3d ca 73 8d 3d 39 b5 c7 3d 14 d8 1b 3e
       0.07223828 0.06906851 0.09751362 0.15219146
000110 ca 85 f2 3d 99 83 4f 3e 14 25 89 3e ba d6 d8 3e
       0.118419245 0.20265044 0.267861 0.42351323
000120 8b 31 b5 3e 47 98 a0 3e 69 cd cc 3d 54 ed a3 bd
       0.3538936 0.31366178 0.100001164 -0.08004251
000130 33 05 97 bd b3 8c 33 3d 1b 2d e3 bd 0b e7 ac bd
       -0.073740385 0.043835353 -0.110925876 -0.084425054
000140 6a 05 f3 bc 69 a8 01 be 0a 42 0f bc d4 6b 68 3c
       -0.029665668 -0.126619 -0.008743772 0.0141858645
000150 54 e4 f6 bb 35 b0 f6 bc 69 de f2 3d 31 c6 df bd
       -0.007534543 -0.030113319 0.118588276 -0.10926474
000160 7a 89 15 be 87 cf df 3d 61 17 db bd f3 6b 83 bd
       -0.14603224 0.109282546 -0.106978185 -0.06417074
000170 e6 4b 94 bd 5b 46 c7 3d e7 e3 1b be bb 14 ec bd
       -0.07241039 0.09730216 -0.15223657 -0.115273915
000180 37 bc 73 be 08 c0 2f bd 74 b8 8d 3e 2f ba ff 3e
       -0.23802267 -0.042907745 0.2767979 0.49946734
000190 29 cc e7 3e aa cc 13 bb 77 92 b3 be 91 da 86 be
       0.4527295 -0.002255241 -0.3507268 -0.26338628
0001a0 56 ae 5a be 1a dd ad 3d ef 50 26 3e 20 70 cd 3e
       -0.21355566 0.084894374 0.16241811 0.40124607
0001b0 c0 10 ee 3d c9 9c 0c be bc b6 27 be f0 3e 1b 3c
       0.116242886 -0.13731684 -0.16378301 0.009475455
0001c0 e0 12 93 ba a8 af b2 3c 30 42 e4 3d f4 98 2e 3e
       -0.0011220835 0.021812275 0.11145437 0.17050534
0001d0 98 a4 2a 3e 0d 9a 51 3c 93 a8 12 3d 44 ba 78 3d
       0.1666435 0.012793076 0.035805296 0.06072451
0001e0 7d fa cc bc 1b e5 74 3d a2 a9 c1 bd a5 cf 30 be
       -0.025021786 0.059788805 -0.09456183 -0.1726671
0001f0 d6 4c cc bd ed 66 0c be b2 a2 6b 3d 28 77 0c 3b
       -0.09975593 -0.13711138 0.057528205 0.0021433327
000200 79 37 5e 3e e8 25 f3 3d 95 35 7d bd 1a 1d 10 3d
       0.21700849 0.118724644 -0.061818678 0.035184003
000210 9a 1f ac bd 4e 57 13 3e e4 90 a3 3e f6 c6 f0 3d
       -0.08404465 0.14388773 0.3194648 0.11756699
000220 d3 ee de 3d 87 60 09 bd 41 f5 48 bd cf 86 a4 3d
       0.10885396 -0.03353932 -0.049062017 0.08033525
000230 c8 97 78 3c 80 01 11 bd 53 2f 33 3e 20 e7 7a be
       0.015172906 -0.03540182 0.17498522 -0.2450223
000240 63 8b 87 be 6c 81 fd be 74 d1 1f be c8 50 c2 bd
       -0.2647353 -0.49512804 -0.15607244 -0.09488064
000250 3e 89 f4 bd f2 51 30 be ca a7 5a be c2 93 66 3c
       -0.11940239 -0.1721876 -0.21353069 0.014073314
000260 8e 0b a1 3e 9d 36 4e 3e b0 5e 8c 3e 20 0d 38 3d
       0.31454128 0.20138021 0.2741599 0.044934392
000270 0b 59 95 3d d2 fb 0e 3e aa 9e 5b bd d6 af 1a 3d
       0.07292374 0.1396325 -0.05361811 0.037765346
000280 4b 67 9c 3c 93 a1 82 3e 5b 4b 2c 3e 10 15 72 3e
       0.019092223 0.25513896 0.16825621 0.23640847
000290 d3 2a cb 3e 3a 9f f1 3e 9c e1 bb 3d 48 95 29 3e
       0.3968111 0.47191793 0.09173891 0.16560853
0002a0 2c 10 e8 bc 57 8b 2d 3d fe 12 fe 3d 89 65 99 be
       -0.028328024 0.042369213 0.12405966 -0.29960278
0002b0 bf 46 05 be 92 bc 28 be b1 ac 94 bd 38 8b 41 bb
       -0.13015269 -0.16478184 -0.07259501 -0.0029532444
0002c0 00 7f 5d bd 7d 07 d4 bd 2b 86 6b be c8 29 29 3d
       -0.054076195 -0.10352991 -0.230004 0.04129961
0002d0 4e ba 10 3e ba 20 76 bd cb ff 86 3d fe 29 9e 3c
       0.1413357 -0.060089804 0.065917574 0.019307133
0002e0 e2 bf d6 bd 89 3c d7 bd d7 97 34 be e0 e5 8b 3d
       -0.104858175 -0.10509593 -0.17636047 0.068309546
0002f0 b7 29 d5 3d 38 00 3f 3e bf f1 a7 3e 3c c5 c1 3e
       0.10408347 0.18652427 0.32801625 0.3784579
000300 41 aa f7 3d 3d 52 75 3e 8a e5 70 3d dc ab 4d 3e
       0.1209302 0.23957153 0.058812656 0.2008509
000310 d0 d7 7d bb f0 85 bb bd 26 bd bc 3d d8 1f 51 be
       -0.003873337 -0.09156406 0.09215765 -0.20422304
000320 5c 4f 87 3e 7b 6b 58 3d ae b5 bc 3d d3 6e 87 bd
       0.26427734 0.052836876 0.0921434 -0.06612935
000330 2e e9 ac 3d 8f b4 30 be 48 25 48 bd ad 76 61 3c
       0.08442913 -0.17256378 -0.04886368 0.013761205
000340 82 ae 47 bd 55 02 22 3d 42 2d a3 bd 5e 0e bc bd
       -0.048750408 0.039553005 -0.079676166 -0.09182428
000350 27 f1 65 be 38 6e 32 be e0 70 c7 bd 42 b0 de 3d
       -0.22455274 -0.17424858 -0.09738326 0.10873462
000360 cd 32 ad 3d 7a 9c 51 3d 6a a6 50 3e d0 f5 3a 3d
       0.08456955 0.05117462 0.20375982 0.04564458
000370 c6 40 fb 3d b7 d3 fd bd 2f b0 52 3e 9a a7 f4 3d
       0.12268214 -0.12393897 0.20575021 0.1194603
000380 1d c0 f7 bd 9c 51 4a be 6f 5f a9 3d 74 f4 06 3e
       -0.120971896 -0.19757694 0.08270156 0.13179189
000390 7a 91 00 3e 27 5b 15 3e 5f 04 27 3e f8 9f b7 3d
       0.12555495 0.14585553 0.16310261 0.089660585
0003a0 9a a4 fc bd 20 00 5c be ec 9a b4 be 24 ea 2d be
       -0.12336083 -0.21484423 -0.35274446 -0.16983849
0003b0 6e 12 af bd d5 b4 80 3e d6 34 31 3e bb 87 f6 bb
       -0.08548437 0.25137964 0.17305312 -0.0075235046
0003c0 ef 91 1b be 96 c4 93 be 01 3f a8 bd 6a 2e 5e 3d
       -0.15192388 -0.2886092 -0.08215142 0.054243483
0003d0 8a d4 eb bd 64 c0 1f bd 45 df ec bd 0f d7 68 be
       -0.11515148 -0.039001837 -0.11566023 -0.22738288
0003e0 26 f9 85 bc 22 6e 20 be dc ad 8c 3e 69 fa 94 3c
       -0.016354155 -0.15667012 0.27476394 0.018185811
0003f0 0a d5 00 bd a7 c3 7d be f6 46 64 bd 89 f8 96 3d
       -0.03145317 -0.24781667 -0.055731736 0.07371623

fc1.bias f4 [86]
000000 89 32 b2 3c 4d 66 28 bd 08 c5 7d 3e 65 c5 43 3e
       0.021752613 -0.041113187 0.24782193 0.19118269
000010 26 91 30 bd dc f3 48 bd 11 f7 f9 bc 8f d2 31 bc
       -0.043107174 -0.049060687 -0.030513318 -0.010853424
000020 d0 31 65 3b ae c8 0f 3e f3 19 ea bd 1a 6a 60 bd
       0.0034972318 0.14041397 -0.11430731 -0.054788686
000030 01 90 6c 3e 30 6a 56 3e d9 bb 22 bd c0 a6 00 bd
       0.23101808 0.20938945 -0.039729927 -0.031409025
000040 91 d3 bf bd bb 44 c0 3d 27 50 52 bc 70 82 80 3e
       -0.09366525 0.09388109 -0.012836493 0.25099516
000050 9b 2b 41 be 6d ea c4 3d 9e ff 40 3e f9 3c 3f be
       -0.1886429 0.09615026 0.1884751 -0.18675603
000060 01 48 f0 bc 54 1f 9c 3d 11 01 63 bc 52 a2 1c be
       -0.02933121 0.07623163 -0.013855235 -0.15296295
000070 7e fd 7e 3d ef 47 e7 bc 27 fe f0 bd 77 69 3a 3d
       0.062253468 -0.028232543 -0.11767226 0.045510735
000080 cf fb 03 3c 8f a6 47 3e de c9 46 3e 7a ad 82 3c
       0.008055641 0.19497131 0.19412944 0.01595186
000090 78 5b f9 bc be 5e 01 3d e3 e5 e8 bd 32 a2 2c 3e
       -0.030439124 0.031584494 -0.113719724 0.16858748
0000a0 95 ed 2d be 3e 54 07 3e c3 62 eb bd a7 85 20 be
       -0.16985162 0.1321573 -0.11493447 -0.15675984
0000b0 f5 83 81 bc 2f 9d 30 be d5 a0 ae bc 6c e4 81 ba
       -0.015809992 -0.17247461 -0.021316925 -0.0009909994
0000c0 df c6 06 be f1 73 92 bd 37 19 dd 3d a2 aa 48 3e
       -0.13161801 -0.0715102 0.10795825 0.19596341
0000d0 0b 90 4d 3e 29 dd 57 bd 0a 78 11 be 5d aa 28 be
       0.2007448 -0.05270115 -0.14205948 -0.16471238
0000e0 87 20 b6 3d 24 90 f5 3d 9f cb 7b 3c 04 15 7b be
       0.08892923 0.11990383 0.015368371 -0.24519736
0000f0 62 9c 42 bd 12 e2 18 bd da 98 9b 3d 07 da 08 be
       -0.04751242 -0.037324972 0.075975135 -0.13364421
000100 eb 1b 88 bb fa 66 e0 3c fd 91 6f bd 95 cc f0 bc
       -0.0041537187 0.027392853 -0.058488835 -0.029394427
000110 30 a4 63 bd e4 43 c7 3d 91 c5 59 3d 65 21 3c bd
       -0.055576503 0.09729746 0.05316693 -0.045930285
000120 e6 f6 88 bc c7 40 02 bb b3 92 89 3e dd 47 08 be
       -0.016719293 -0.0019875036 0.26869735 -0.13308664
000130 85 9a 45 3e ec 98 07 bc 8f 44 2e 3e 6a 16 9a bb
       0.19297226 -0.0082762055 0.1701834 -0.004702379
000140 e6 f5 9a bd c4 a3 12 be 64 58 e0 bd ad 92 50 be
       -0.07566433 -0.14320284 -0.10954359 -0.20368452
000150 f3 d9 15 be db 67 d0 bc
       -0.14633922 -0.025440147

fc2.weight f4 [86, 86]
000000 e9 df 38 bf a0 9b 50 3d e8 dd 5c 3e ab b5 b2 3e
       -0.7221666 0.050929666 0.21569026 0.34904227
000010 b3 64 0d be bd 34 b0 bd 2f ac 19 3e e0 ba da 3b
       -0.13807945 -0.08603809 0.15007089 0.0066751093
000020 29 f7 6f bd dd 1e 4f 3d a2 ea 7f 3e 2b 53 d6 be
       -0.05858532 0.050566543 0.24991849 -0.41860327
000030 6c f5 fc be a2 b3 8e 3e 42 2f 8f bd 94 eb 57 bd
       -0.49405992 0.27871424 -0.069914356 -0.0527149
000040 b5 95 06 3e 4a c0 32 3e 0d 9e e2 bd e1 39 a1 3e
       0.13143046 0.17456165 -0.11065302 0.3148947
000050 13 82 28 be 0e 5a 21 3d 04 70 6b 3e aa a6 0e be
       -0.1645587 0.039392523 0.2299195 -0.13930765
000060 24 d7 3b be 1c 7d 53 3e d5 b0 81 3e 7a cc 30 be
       -0.18343788 0.20653194 0.25330225 -0.17265502
000070 9c 77 83 3e 6f 3d cd bd 20 b0 de be db 33 1f be
       0.25677192 -0.10021483 -0.43493748 -0.15547125
000080 35 90 94 3e 70 b4 b2 3e 66 4c bb 3e b5 2f ae 3d
       0.2901627 0.34903288 0.36581725 0.08505193
000090 22 77 bb 3d ff f2 27 be a0 48 60 3c 51 bc a2 3e
       0.09153582 -0.1640129 0.01368919 0.317843
0000a0 7a b5 3e 3e c9 88 56 be b5 91 9a bd 56 9a d6 3d
       0.18623915 -0.20950617 -0.07547323 0.10478656
0000b0 c0 cc 83 be 79 e1 bf be 1e 45 7e bd af 90 b3 be
       -0.2574215 -0.3747671 -0.062077634 -0.35071322
0000c0 68 36 2d be cd fe 2e 3e 6c 34 de bd f1 6c 9d be
       -0.16915286 0.17089386 -0.108498424 -0.30747178
0000d0 4c 42 68 bc a2 95 a8 3c bb 04 06 bd 04 7a 3e 3e
       -0.014175963 0.020579163 -0.032719355 0.18601233
0000e0 98 d5 b7 bc 05 51 c0 ba 2b a9 8e bd 1a f4 88 be
       -0.022440717 -0.0014672583 -0.0696586 -0.26748735
0000f0 f3 ed 11 3d b8 80 31 bc 3d 91 91 3e 96 86 7d 3e
       0.035627317 -0.010833912 0.2843112 0.24758372
000100 fc b0 64 3d 69 0d 81 3e b0 00 f7 be 2b a8 74 be
       0.055832848 0.25205544 -0.48242712 -0.23892276
000110 78 88 b7 be d5 04 de bc fc 63 cc be e3 5c 2f bd
       -0.35846305 -0.027101913 -0.39920032 -0.042813193
000120 a1 9a d3 3c 3c d0 13 3e 8c b2 c4 3c ef cb 2e 3e
       0.025830569 0.14434904 0.024010919 0.17069982
000130 9c a5 02 be 26 da 8a 3d 34 b8 90 3e e7 15 71 3d
       -0.12758487 0.0677989 0.28265536 0.05885878
000140 20 a6 16 3d ca 50 25 be 96 80 1b be 89 fc 55 be
       0.036779523 -0.161441 -0.1518577 -0.20897116
000150 2b f1 3f 3e cf b3 8a 3e af bb f8 bd f1 ff b0 bd
       0.18744342 0.27090308 -0.12145173 -0.08642567
000160 6c df 89 be 4f a4 c1 bd 17 62 88 3e d5 38 1f 3e
       -0.2692827 -0.094551675 0.26637337 0.15549023
000170 30 6b 0f 3e ff 33 bf bd fc c7 83 3a 37 8c a3 bd
       0.14005733 -0.09336089 0.0010054107 -0.07985728
000180 d2 c4 21 3e 13 2e 94 3e f2 0c 3c be 36 a1 83 3e
       0.15797737 0.28941402 -0.18364313 0.25708932
000190 b5 05 21 be 01 c4 ec bc 2b ec b9 3d 88 b7 44 be
       -0.15724833 -0.028902056 0.090782486 -0.19210637
0001a0 45 b0 58 3e 0f 1a dc 3d d5 65 79 be 59 c2 8f be
       0.21160991 0.10747158 -0.24355252 -0.28077963
0001b0 d0 c3 36 bd 74 3e d3 3d 4e 57 95 3e 7c e3 c8 3d
       -0.044620335 0.10314646 0.2916817 0.09809014
0001c0 bf 6e 21 3e 2d ab b5 be 09 63 ce be 65 6c 03 3e
       0.15764903 -0.3548216 -0.40309933 0.12834318
0001d0 c9 4e 5b bd 68 6d 33 bc 20 a2 9e be 8e 95 d4 bd
       -0.053541932 -0.010951377 -0.30983067 -0.10380088
0001e0 67 61 29 3e aa ab 62 be de 74 d1 ba d8 4c 1e be
       0.16541062 -0.22135797 -0.0015980264 -0.15459001
0001f0 f6 3f fa 3d 13 c8 a3 be 7a dc 10 be ee fb 4e be
       0.12219231 -0.31988582 -0.14146605 -0.20213291
000200 be 9b be bd 27 9c d7 3e 6a cb 8b 3e 5f 52 cd bd
       -0.09307049 0.42111322 0.2730363 -0.10025477
000210 51 47 6c bd 65 19 3e 3c 76 5e cf 3d 49 c5 dd be
       -0.0576852 0.011602734 0.10125439 -0.4331458
000220 9f 11 b5 3e 48 61 8a bd f0 1e 41 3e 66 6e bd 3e
       0.35365006 -0.06756836 0.18859458 0.3699829
000230 50 e9 0c be 8a c1 06 3e 66 cc 78 3e ce 9a 8c bd
       -0.13760877 0.13159767 0.24296722 -0.06865464
000240 0d 7c b5 bd 1c 6a 23 bd b5 58 2a 3e e6 42 bb bc
       -0.088615514 -0.039896116 0.16635402 -0.022859048
000250 3b f4 66 3d 49 74 02 3d fe 48 ec bc 76 24 12 3e
       0.05638526 0.03184918 -0.0288434 0.14271721
000260 a7 9e 98 be e3 11 f0 3d 1f 6b 44 bc ce 95 31 3e
       -0.29808542 0.117221616 -0.01198843 0.17342302
000270 9f 54 54 be 2c 4c ef be 92 68 11 3c 0d f2 2a 3e
       -0.20735405 -0.46737802 0.008875029 0.16693898
000280 a0 71 8c 3e d1 90 40 3c c7 b4 35 be bd 11 fa 3d
       0.2743044 0.011753277 -0.17744742 0.122104146
000290 6e 3e 4a 3d 75 b6 3a 3e 88 b0 a1 bd 45 b2 cb 3d
       0.049375944 0.18233664 -0.07894999 0.099461116
0002a0 10 43 4a be 20 6a ba be a6 c1 35 3e 1b c6 6f 3e
       -0.19752145 -0.36409092 0.17749652 0.23415415
0002b0 f2 93 89 3d c9 9c 7b 3a 83 22 5b be 4c f4 19 be
       0.067176715 0.0009598253 -0.21399884 -0.15034598
0002c0 17 79 91 3e 7e c6 db bd 05 41 8b bc d8 09 a2 bd
       0.28412697 -0.10731219 -0.016998777 -0.07912034
0002d0 d4 e5 89 3d 98 f6 93 bc 5c cc 9f bd 95 6d 27 3e
       0.06733289 -0.018061921 -0.0780265 0.16350396
0002e0 d5 45 32 bd f5 06 b3 bc 5e a0 95 3b 71 92 74 bd
       -0.04352363 -0.021853903 0.0045662364 -0.05970997
0002f0 ac 30 0d 3e 3f 13 1e 3d 0b 68 0b be b4 7a e4 bc
       0.13788098 0.038592573 -0.13613908 -0.02789054
000300 41 04 cc 3d 37 cc 85 be 36 10 4f 3e 63 2f 18 bd
       0.09961749 -0.26132366 0.20221028 -0.037154566
000310 e9 0c 9f bd 5d f2 23 bf 01 2d 82 be 1c 6e 0c 3e
       -0.07766134 -0.6404169 -0.2542496 0.13713878
000320 1e 84 57 3d a2 46 1a 3e b6 a0 36 3e d1 64 64 3e
       0.05261623 0.15066007 0.17834744 0.22304083
000330 f5 fd 35 be 5a 34 25 3e 08 6f d4 bd 8e b0 d1 3d
       -0.17772658 0.16133252 -0.1037274 0.10238753
000340 2f 71 c7 bd fa 45 6e 3c 22 6c 94 3d a9 11 fd 3c
       -0.09738385 0.014543051 0.07247187 0.03089221
000350 d5 7d 8e 3e 6f 08 c6 bb 57 f2 26 be 89 ba 67 be
       0.27830377 -0.006043486 -0.16303383 -0.22629751
000360 9c f8 d0 3c 3d e2 d3 be 9b 85 84 3e df f4 23 3d
       0.025509171 -0.41383544 0.25883183 0.04002845
000370 91 04 fd 3d 7c 3f 9b bd 74 86 4a 3e 69 b4 f1 3d
       0.123543866 -0.07580468 0.19777852 0.11801989
000380 d1 d3 0d be a2 f9 bc 3e cf 94 01 bf 54 ba 76 3d
       -0.13850333 0.36909205 -0.5061769 0.06023629
000390 04 3c 03 be b1 ad 52 bd 18 1d 8f bc e6 d8 48 3d
       -0.12815863 -0.051435176 -0.017469928 0.049034975
0003a0 b7 ee 56 be 01 15 a2 bc 4c 79 91 3e c9 fc 45 be
       -0.209895 -0.019785406 0.28412855 -0.19334711
0003b0 4d 6e fa bc 5e 4e 98 be eb 51 c2 bd d5 50 4f 3e
       -0.030570174 -0.2974729 -0.09488281 0.20245679
0003c0 a9 8e 99 3e 96 19 df be 95 39 d0 bd be ac f7 3d
       0.29991654 -0.43574208 -0.10167233 0.12093495
0003d0 39 f4 8d 3d ec ec a2 3e 18 f3 ae bd d5 e9 03 be
       0.069313474 0.31821382 -0.0854246 -0.12882169
0003e0 68 98 b9 bc cd 36 f6 3b 75 9e bd bd bd ed b3 be
       -0.02265568 0.007513857 -0.09258739 -0.35142317
0003f0 93 55 cc 3d 0f 86 37 3d 7f b8 dc 3d 9e 1e 83 be
       0.099772595 0.044805583 0.10777377 -0.25609297

fc2.bias f4 [86]
000000 95 d7 c7 bd 81 70 1e 3e b4 61 8e 3d 81 c4 25 be
       -0.09757916 0.15472604 0.06952229 -0.16188242
000010 0a f9 b5 bd cf cf 0e be 26 e0 72 3e 79 f6 e8 3d
       -0.08885391 -0.1394646 0.23718318 0.11375136
000020 22 73 56 3d 99 63 00 3c af 9b ec bd 40 e1 80 3e
       0.052355893 0.007836246 -0.11553132 0.25171852
000030 b8 ae 8c bd 3c fd 36 3c 8d a3 0c be dd 04 a8 3c
       -0.068692625 0.011168774 -0.13734265 0.020510131
000040 84 e1 59 3e 97 2f 99 3d 16 9e 31 be 01 48 94 bd
       0.21277434 0.0747978 -0.17345461 -0.07240296
000050 27 ba ac 3d bb 6b 18 be 3a 70 fb 3d af d2 32 3c
       0.08433943 -0.14884846 0.12277265 0.010914489
000060 2b c8 17 be 28 6d f2 3c 46 ce b6 3e 7f 83 8f 3e
       -0.14822452 0.029593065 0.3570425 0.2803001
000070 bd 34 33 be e3 ce ec bd f5 f0 6c 3d 81 8d f6 3d
       -0.17500587 -0.11562898 0.057846982 0.120387085
000080 bb c6 10 3e e2 ec 29 be 4b a2 95 3e 69 bc 6a 3c
       0.1413831 -0.1659427 0.29225382 0.014327147
000090 34 7a b6 bd 5a 67 03 3e b5 09 40 bd 1e 22 be bd
       -0.08910027 0.12832394 -0.046884257 -0.09283851
0000a0 d9 fb 91 bd bf 28 13 bd da 0c fc 3a 57 1c 50 3d
       -0.07128114 -0.03592753 0.0019229904 0.050808277
0000b0 14 55 3f 3e 47 a0 de 3d 48 db 33 3e 9b ea 52 3d
       0.18684798 0.10870414 0.17564118 0.05149327
0000c0 20 be 93 bd 1d 9c e7 3b 15 20 b6 3d 68 e5 31 3e
       -0.07213998 0.0070681707 0.08892838 0.17372668
0000d0 c6 72 dd 3d 87 ed 48 bd 48 75 c4 3e 6c db 7e 3d
       0.10812907 -0.04905465 0.38370728 0.062220976
0000e0 ab 55 87 be 84 1c 46 bd 80 10 16 be ed e9 68 be
       -0.26432547 -0.04836704 -0.14654732 -0.22745486
0000f0 69 87 29 bd e1 48 de bd bd dc 40 3e 66 b2 87 bd
       -0.041388903 -0.10853744 0.18834205 -0.06625824
000100 c7 42 01 3e 9e f3 ef bc 80 09 ee bd 7b 7b cb 3d
       0.1262313 -0.02929097 -0.11622906 0.099356614
000110 7f 66 f7 3c bd a9 f7 bc e2 d2 bd be 2d 7d c5 3d
       0.030200241 -0.030232305 -0.37074953 0.09643016
000120 75 8d 6d 3e 7c 69 91 3e 9d ee 7d 3d d2 66 10 3c
       0.23198493 0.2840079 0.061995137 0.008813577
000130 97 c5 62 3e 6f b7 8a 3e 8c 11 71 be 88 6f 23 be
       0.22145687 0.27093074 -0.2354185 -0.15960515
000140 ea 88 86 bd f5 77 47 3e ce 99 14 be 1e 51 77 3c
       -0.06569083 0.19479354 -0.14511797 0.015095023
000150 2f 1d 66 be b3 de cc 3d
       -0.2247207 0.10003414

fc3.weight f4 [86, 86]
000000 fc 2e ae be 93 a4 d3 3d 7e 00 1f be f9 9b df be
       -0.3402022 0.103341244 -0.15527532 -0.43673685
000010 0f 42 0c bd 5e d5 67 be d9 b4 10 be 66 ac 03 3b
       -0.034242686 -0.22639987 -0.14131488 0.002009177
000020 a4 36 ce bc 6c 77 be bd a1 d6 4f be be 4a e2 3d
       -0.025172539 -0.09300122 -0.20296718 0.11049412
000030 0c 98 9c 3e d5 d8 2e 3d fb 54 6e 3e c3 b9 b8 bd
       0.30584753 0.042687256 0.23274605 -0.09019806
000040 85 9f 51 3e 9f 97 ca bd 80 6d a1 be 26 fd a2 3d
       0.20471008 -0.09892201 -0.31528854 0.079584405
000050 03 2c 14 be 63 04 02 bc 5b 43 24 3e 71 3a e3 3d
       -0.14469914 -0.007935616 0.16041319 0.11095131
000060 d3 fe d1 3e 62 1d 68 3b c0 04 ba 3d b4 17 3a 3e
       0.41014728 0.0035417904 0.09082937 0.18173105
000070 e1 5f 94 3d e7 b2 f1 3d e5 6f e7 bb 2e 41 8f bd
       0.0724485 0.11801701 -0.0070628994 -0.06994854
000080 53 0d 83 be 86 d0 dc 3d bd 82 88 3e 5d 10 2b be
       -0.25596103 0.1078196 0.26662245 -0.16705461
000090 e1 f4 9f 3e 1d 78 b0 bd 0a e5 e3 3a 0d 17 02 3e
       0.31241515 -0.0861666 0.0017386985 0.12704106
0000a0 5f ba 5b be bb 34 46 bd 1c 0d a3 bd 84 64 12 be
       -0.21457814 -0.04839013 -0.07961485 -0.14296156
0000b0 01 fa 0a 3e 10 e6 70 be 4e c6 13 be c3 88 82 bc
       0.13571931 -0.23525262 -0.14431116 -0.015934354
0000c0 e1 89 4b 3e 4d b1 1d be 6e d2 84 be 94 09 21 3e
       0.19876815 -0.15399666 -0.25941795 0.1572631
0000d0 b1 ec 3b 3e 4f 3d 79 bd 28 48 fa be cf a5 a4 bc
       0.1835201 -0.060849484 -0.48883176 -0.020098595
0000e0 33 cb da 3d cb f1 94 be 88 04 0e bf f8 e6 f7 bb
       0.106832884 -0.29090723 -0.55475664 -0.0075653754
0000f0 92 ec 0b bd 10 76 72 bd c9 89 52 3c dd e8 25 bd
       -0.034161158 -0.059194624 0.012850233 -0.04050528
000100 dd 0c 8b bd 63 46 02 bd 42 fc cb 3d 22 ac 47 3d
       -0.06789563 -0.031805407 0.09960224 0.048748143
000110 2c 7c c3 be e1 69 5c 3e 0c 8d 99 bd f8 3a 31 be
       -0.38180673 0.21524765 -0.07497606 -0.17307651
000120 c5 a2 78 3e 95 6d 20 3e 14 fa 62 bd 7f 7e f6 3d
       0.24280842 0.15666802 -0.055414274 0.12035846
000130 61 67 3c 3e 54 5a 48 be c2 68 17 3e a5 11 9e be
       0.18398811 -0.19565707 0.14786056 -0.30872837
000140 8b 25 13 3d 91 77 75 be 1e bb ec bd 99 34 2d 3b
       0.035924476 -0.23971392 -0.11559127 0.0026429056
000150 f4 df c1 be c9 e8 18 3e c0 0c 0a 3e c0 ed ae bd
       -0.37866175 0.1493255 0.13481426 -0.08541441
000160 d4 8d b8 3d 55 a3 0b bf 46 f5 8a bc 9e e4 51 bd
       0.090114266 -0.545461 -0.016962659 -0.051243417
000170 94 8a 5e be 1a 58 90 3d 87 ee 39 3e f5 c2 5c be
       -0.21732551 0.07048054 0.18157397 -0.21558745
000180 e0 2f fb bd e3 0b 11 bd 5a 78 3b 3d 0d 11 a1 3d
       -0.12264991 -0.035411727 0.045769073 0.0786458
000190 dd 44 42 3e b0 83 63 bd 84 89 3b 3e 4c 6c 30 be
       0.18971582 -0.05554551 0.18314177 -0.17228812
0001a0 e7 0a 51 3c 92 41 84 3d 66 c4 8c be 53 9b a3 bd
       0.012758947 0.06457819 -0.2749359 -0.0798861
0001b0 44 9f 34 3b ea d7 08 3d 32 4f e1 3d 9b 02 48 3d
       0.002756075 0.033409037 0.110014334 0.04883061
0001c0 b7 ad c6 be 61 1d ae 3d 11 e4 b0 3c 4c 87 64 3e
       -0.3880441 0.08501697 0.021593126 0.22317237
0001d0 94 88 44 3e aa 42 e6 bd 08 a8 20 3c 1e 35 35 3d
       0.19192725 -0.11243184 0.009805687 0.04424011
0001e0 96 aa 12 3e 0f 3c 2c 3d 05 67 f7 3c 11 ef 84 be
       0.14322886 0.042049464 0.03020049 -0.25963643
0001f0 07 51 2a 3e be 78 a5 3d 78 7d 86 3d 25 18 28 3d
       0.16632472 0.0807967 0.065669 0.04103865
000200 fa c6 6f 3d 5e f6 9e be e5 2a 73 be 92 09 b8 bd
       0.05853937 -0.31047338 -0.23746832 -0.089862004
000210 2c a1 42 be 51 e1 69 be bf 46 82 bd 96 ff af 3c
       -0.19006795 -0.22839858 -0.0636115 0.021484178
000220 18 cd 2c be 10 7e bc be 20 70 00 be a3 e1 04 bd
       -0.16875112 -0.36814928 -0.12542772 -0.032441746
000230 a6 13 ad bc de bc c0 bd fb ce 94 bd 2b 42 02 bf
       -0.021127533 -0.094110236 -0.07266041 -0.50882214
000240 c6 08 c7 be 1b fa 8c 3e 57 0a 20 be 56 d9 81 bc
       -0.3887388 0.27534565 -0.15628944 -0.015850704
000250 4a 20 2c be df 2e 89 be 4d 2d 9d be aa 75 85 bd
       -0.16809192 -0.26793572 -0.30698624 -0.06516583
000260 00 b4 6f 3d 7f 57 ca 3d f2 db c0 bd a3 c0 9c be
       0.05852127 0.0987997 -0.09416951 -0.3061572
000270 9b 8d f0 3d ec f3 2d bc c6 69 e4 3d 57 e0 42 bc
       0.11745759 -0.010617238 0.11152987 -0.011894307
000280 a6 69 57 bd df 44 0b 3e b8 15 b8 3d 8b 23 c3 bc
       -0.05259099 0.13600491 0.089885175 -0.02382066
000290 2e 9c ae bd 3c cb b0 be aa 9a 18 be 9b c4 f2 bc
       -0.08525883 -0.34530056 -0.1490275 -0.029634764
0002a0 78 c9 31 3e bc e1 d5 be 5e ae 0f be fe f0 23 bd
       0.1736201 -0.41773784 -0.1403136 -0.04002475
0002b0 96 a9 f1 3d 09 a4 cc 3c d4 14 86 be e0 0c 3d be
       0.11799924 0.024980562 -0.26187766 -0.18461943
0002c0 cd e7 d2 bc 2e 71 a0 3d d6 b7 12 be c0 67 ce bc
       -0.025745297 0.07834087 -0.1432794 -0.025195956
0002d0 15 7e e8 bd e6 fa 82 be 74 7f 4b bd da 0f b4 be
       -0.11352173 -0.25582045 -0.049682096 -0.35168344
0002e0 cc 5c 49 3b 7f b7 96 bc 9f 65 81 bd d7 73 8b be
       0.0030725477 -0.018398045 -0.06318211 -0.27236816
0002f0 5d 12 7a be 24 05 d0 be 29 9a 83 be 5d d6 ea bd
       -0.24421068 -0.40628922 -0.25703552 -0.11466668
000300 02 05 1f bf 38 f0 8a 3e 44 52 21 3e ce 1f 9c be
       -0.62117016 0.27136397 0.15754038 -0.30493015
000310 ec c9 1c be 7c 73 19 bd a4 3f 3c bb be 8a ca 3d
       -0.15311402 -0.03746365 -0.0028724456 0.09889744
000320 fb c1 14 be 14 72 84 3e f1 93 0c be c2 34 2b be
       -0.14527123 0.25868285 -0.1372831 -0.16719344
000330 c1 09 10 3e 2f 73 4c 3e e7 c5 0b be 83 f6 e5 bd
       0.14066221 0.19965814 -0.13649713 -0.11228659
000340 cc aa db be 7d 4d 4c be ab 5c ea 3a 2d 9b 9a bd
       -0.42903745 -0.19951434 0.00178804 -0.07549129
000350 e0 ae 9b 3d ae 55 c3 bd 94 20 94 3e 4a a5 25 bc
       0.07601714 -0.095378265 0.28931105 -0.010110209
000360 e0 3d 7d bd 7f b6 09 3e 5b 3e 33 3d 8d db 92 be
       -0.061826587 0.13448523 0.04376064 -0.2868313
000370 50 88 15 3e be fa 9a 3c ec 9a ee 3c d0 6e c3 3d
       0.1460278 0.018918391 0.029126607 0.0954262
000380 0a 8b da bd 6c 16 4b 3e a7 64 c5 bc 08 74 5b bd
       -0.10671051 0.19832772 -0.024095846 -0.053577453
000390 07 36 19 be c3 5b 9e 3e a7 b8 1b bb d5 95 b3 3d
       -0.14962016 0.30929384 -0.0023761184 0.087688126
0003a0 8f 5f cf be 57 c5 47 be ab 10 6f 3e 5b 5f b8 bd
       -0.40502593 -0.19508873 0.23346202 -0.090025626
0003b0 e6 72 4d 3d da 1b 2e be 82 c8 80 be e6 9e 1c be
       0.050158404 -0.17002812 -0.25152975 -0.1529499
0003c0 7f 93 d5 3c 38 6a 8e 3e 21 2f a3 3d 38 d1 34 bf
       0.026071308 0.27815413 0.079679735 -0.7063174
0003d0 c0 d8 89 bd 4b 98 08 3e a2 8b cc be 7c 9f 4c 3d
       -0.06730795 0.13339345 -0.3995028 0.049956784
0003e0 4b f9 63 3d 76 50 6b 3d b6 b4 62 3e f7 7b 0f be
       0.055657666 0.05744978 0.22139248 -0.14012133
0003f0 9a f5 e1 bd 74 c9 29 3e 36 ef d8 bc 45 9e 78 be
       -0.11033173 0.16580755 -0.026481252 -0.24279125

fc3.bias f4 [86]
000000 0f 50 1b 3c 1d d8 fd bd 1e d0 95 bd c9 23 76 3d
       0.009479537 -0.12394736 -0.07315086 0.06009272
000010 d7 f4 51 be 0c 67 ed 3d 24 b7 62 bd bf 41 0d 3b
       -0.20503555 0.1159192 -0.055350438 0.002155408
000020 04 74 41 be b5 9f 9a bc bf f6 16 bd 89 24 06 be
       -0.18891913 -0.018874982 -0.03685641 -0.13099875
000030 0a 90 91 3e f1 df 69 3d ce 28 b3 bd f0 12 b9 3e
       0.28430206 0.057098333 -0.08748017 0.3614726
000040 5f 36 3d be 3c 11 9e 3c 6e 70 0c 3e d4 12 b1 bd
       -0.18477772 0.019295327 0.13714764 -0.08646169
000050 ca a2 e1 3d f1 3d d2 bd 89 76 3e be 27 5e 9f 3e
       0.11017378 -0.10265721 -0.18599905 0.3112652
000060 3b 3a 3c 3e 65 2d c3 bb 01 af a5 3c 17 11 cf bc
       0.18381588 -0.005956339 0.02022505 -0.025276704
000070 10 59 e3 3d 6a c8 99 bd c9 c2 ed bd 3a 49 14 3c
       0.11100972 -0.07508929 -0.11609418 0.009050662
000080 60 18 04 3e 51 0b 09 3d 6f 14 b1 3d 76 ad f2 bd
       0.12899923 0.033458058 0.086464755 -0.11849491
000090 65 cc 92 3c b1 aa 70 3d 14 9d 83 3c 9f 24 13 3e
       0.017919729 0.058756534 0.016066112 0.14369439
0000a0 ab 55 d4 3d 06 a2 be 3e 90 4f b9 3d cb 8b fa bd
       0.10367902 0.3723299 0.090483785 -0.12233695
0000b0 fc 08 1b 3e 44 3f 82 bd 5a 7e b7 3b 8a 71 a6 3e
       0.15140146 -0.06359723 0.005599779 0.32508498
0000c0 97 94 97 3e 16 13 df 3d f6 70 ae bd cd 2f 22 3e
       0.29605553 0.10892312 -0.08517639 0.15838547
0000d0 af f0 04 bc 1d 24 89 bd 2c 9d c2 bd 83 8a 5b 3d
       -0.008114024 -0.06696341 -0.095026344 0.053598892
0000e0 a8 7c f6 bd 05 b0 a4 bc 06 4a 10 be aa 87 f4 bd
       -0.12035495 -0.020103464 -0.14090738 -0.11939938
0000f0 34 66 5c bc bf d7 66 3e dc 8a 30 bc 89 3c 4b be
       -0.0134521015 0.22543238 -0.010775294 -0.19847311
000100 9d 92 12 bd 60 35 57 3e c5 3b 2d bd 84 fb 00 be
       -0.035784353 0.21016455 -0.04229333 -0.12595946
000110 59 1a 56 be 85 f9 86 3d 61 8f f4 bd ef bd 25 be
       -0.20908488 0.06590561 -0.1194141 -0.16185735
000120 b2 9c 5d bd 4b 57 72 3e c6 5e ea bd e7 c1 0d be
       -0.054104514 0.23666112 -0.11443858 -0.13843499
000130 a0 67 69 3d f6 d6 72 be d3 3a 52 3e 69 e2 00 be
       0.05698359 -0.23714814 0.20530252 -0.12586369
000140 cc a7 57 3e e3 76 a3 3e da 41 4a 3e 11 a3 d0 3e
       0.21060103 0.3192664 0.19751683 0.4074941
000150 d0 61 21 bc d0 e5 75 be
       -0.0098499805 -0.24013448

fc4.weight f4 [10, 86]
000000 bf d4 34 3e 15 a9 2f bd b7 08 87 be 83 1d 8b be
       0.17659281 -0.04288586 -0.26373836 -0.27170953
000010 92 3d 03 bf 4b 0c 19 bf 17 8d 3f be aa 61 f1 be
       -0.51265824 -0.5978438 -0.18706165 -0.47144824
000020 1e 1a f8 3d 87 a4 f9 be ab d5 92 bd d2 3a b6 be
       0.121143565 -0.48758337 -0.0716966 -0.3559175
000030 e4 2f 0c bf 71 49 51 be fb 15 b3 bd 68 12 07 be
       -0.54760575 -0.20438172 -0.08744427 -0.13190615
000040 7c 3c ad be db c0 80 be 55 e4 b3 bd f2 a6 df be
       -0.33835208 -0.25147137 -0.08783785 -0.43682057
000050 9a a9 73 be 38 8a 2b be 05 b6 57 3d 5d bb f3 be
       -0.23795167 -0.16751945 0.05266382 -0.47603884
000060 b7 4d f1 bd 83 92 c1 bf c0 01 f1 bd 69 6b 2e bf
       -0.11782401 -1.5122837 -0.11767912 -0.68132645
000070 2f 6d 07 3e ad c1 9f bc 1a d6 d6 be 28 8c 1a be
       0.13225244 -0.019501531 -0.41960222 -0.15092528
000080 5a 95 e0 3d 5a f5 b2 3d 91 bd 15 be 3d 4c 19 3e
       0.109659865 0.08738203 -0.14623095 0.14970489
000090 38 4e bc 3d f9 47 0b 3e 71 5f 39 bd b8 42 cb bc
       0.091946065 0.13601674 -0.045257036 -0.024812087
0000a0 99 81 c7 be 73 ed 73 be e7 c3 b7 be d4 73 39 bf
       -0.38966063 -0.23821048 -0.3589165 -0.72442365
0000b0 f3 32 55 bd 28 05 ea 3c 2a 04 5f bd 1f 4a 05 3d
       -0.052050542 0.028566912 -0.05444733 0.03254139
0000c0 1c a9 04 bf e6 ea 64 3c 39 0d ad bc 2c 5f 25 be
       -0.5182054 0.01397202 -0.02112447 -0.16149586
0000d0 ee cc e0 be ae 34 0f bf 97 26 f5 3d eb ab 7b bf
       -0.4390635 -0.5593976 0.11970251 -0.983092
0000e0 da c0 3b 3e d8 ec 11 3e c1 a8 bf be b5 75 38 3d
       0.18335286 0.14250505 -0.37433437 0.04503413
0000f0 73 bb 8f 3d e3 c3 db 3c 0e 31 f6 bd 20 a9 2d be
       0.07018175 0.026826805 -0.12021075 -0.16959047
000100 a4 9b 7b be 5a a1 cf 3d 8b ba 98 3d 78 d5 11 be
       -0.24571091 0.10138197 0.07457455 -0.14241588
000110 37 16 fb be ba 02 c6 be f6 9a d8 bd 71 f7 b0 be
       -0.49040386 -0.38673955 -0.105764315 -0.34563783
000120 29 a5 0c 3e 82 95 2e bd e8 bc b5 3d 3b 2f 54 bb
       0.13734879 -0.04262305 0.08873922 -0.0032376784
000130 4f c9 b5 3d 56 df 87 be 4c ab c2 be 25 5d 3e 3d
       0.08876287 -0.2653758 -0.38021314 0.04647555
000140 f0 27 ae 3d e3 6e 92 bc 19 7e d9 3c e8 99 cb be
       0.08503711 -0.01787514 0.026549386 -0.3976586
000150 c4 76 47 bf 16 35 39 bd fe a4 e7 be fa 31 9d be
       -0.77915597 -0.045216642 -0.45243067 -0.30702192
000160 d4 46 24 3e f3 62 c6 bc 7e e6 08 be 4a a6 21 3e
       0.16042644 -0.024217105 -0.13369176 0.1578609
000170 2d 66 30 3e 52 a0 f6 3d 0a 8c f4 be aa fa 59 be
       0.17226477 0.120422974 -0.4776309 -0.21287027
000180 77 fc 49 3e b3 07 1e bc cf 81 90 be 84 0e 47 3e
       0.19725214 -0.00964539 -0.28224036 0.19439131
000190 a0 32 02 3d ae 92 98 be 7f 4e 50 3d f4 a6 36 3d
       0.03178656 -0.29799408 0.05085611 0.044592813
0001a0 eb 93 0b 3e 09 f3 d0 be e1 41 50 be cd 19 55 bd
       0.13630645 -0.4081042 -0.20337631 -0.05202656
0001b0 35 2e 7d 3c aa 2e 1c 3e f6 f5 96 be e3 a7 de 3d
       0.015452911 0.15252176 -0.29484528 0.108718656
0001c0 e2 f6 67 be 14 cb 07 3e 2f 7f e5 3c a9 57 dc be
       -0.22652772 0.13261062 0.028014747 -0.4303563
0001d0 2d 12 b3 3d c3 9a 44 be a3 43 5b be b0 7b b2 3d
       0.08743701 -0.19199662 -0.2141252 0.08714998
0001e0 48 6c 50 be a5 d3 bf bf ce 1c c0 be e6 35 05 3d
       -0.20353806 -1.4986464 -0.37521976 0.032522105
0001f0 6e 75 ff be 3a 4d fe bd f5 f0 59 3d 97 20 d2 3d
       -0.4989428 -0.124170735 0.05320831 0.10260122
000200 c3 53 d1 be 49 2b 92 be 20 61 00 bf 28 80 b2 3d
       -0.40884218 -0.2854865 -0.501482 0.0871585
000210 d9 f4 2c 3e e3 59 63 3d 7f 0c a8 be 60 e5 82 be
       0.16890277 0.055505645 -0.32822034 -0.25565624
000220 8a 0d 91 be 35 ca 8f be 9c f8 e5 3d 2c 55 a3 be
       -0.28330642 -0.2808396 0.11229059 -0.31900918
000230 c9 7b ae 3e a0 23 bd 3c e1 ff 0e bf cd 56 f4 be
       0.34078816 0.023088276 -0.5585919 -0.47722474
000240 55 0d 0e 3e 6a 04 5f 3e b8 96 0c bf db 5c 77 be
       0.13872273 0.21779028 -0.5491748 -0.24156515
000250 3c 88 12 3e da 4c 53 be f7 21 10 bf 33 6b 55 bd
       0.14309782 -0.20634785 -0.56301826 -0.052104186
000260 fd 6f ac 3c 65 62 37 3d 67 82 dd 3d 57 7f e8 3c
       0.021049494 0.04477157 0.10815888 0.028381033
000270 ca fe 52 be 2f 44 29 bf 37 b3 ad 3c 64 c0 33 3e
       -0.20605007 -0.66119665 0.02120362 0.1755386
000280 82 de f8 bd 48 8d ad 3c e5 8d 41 bf d4 85 8d be
       -0.12151815 0.021185532 -0.7560714 -0.27641165
000290 cb e1 d3 bd 7f 84 e6 be 75 8a d5 3d 26 ee 38 be
       -0.10345801 -0.45022961 0.10426799 -0.18059596
0002a0 18 06 18 be 38 23 fa bd a0 9f a0 3e 7c d5 b6 be
       -0.14846075 -0.12213749 0.31371784 -0.3570975
0002b0 e0 e9 4a 3d d2 a7 e2 3d 97 fd dd bd dc 9f d8 3d
       0.049539447 0.110671654 -0.10839384 0.10577366
0002c0 ac 25 7e be f9 21 3e 3e 29 e4 5b bd 16 41 82 3d
       -0.24819058 0.18567647 -0.053684387 0.063600704
0002d0 e9 30 ac be 14 28 d2 bd 5a c6 3a be 03 3e 4b 3d
       -0.33631065 -0.102615505 -0.18239728 0.049619686
0002e0 77 38 b1 be 82 b6 8f be 34 7b ea bd 20 01 f1 bd
       -0.34613392 -0.2806893 -0.114492804 -0.11767793
0002f0 51 27 5a bc ed bd 5a be d8 90 a9 39 0a 27 08 bf
       -0.013315038 -0.21361513 0.0003234211 -0.5318457
000300 38 6f a6 bc a3 6c 2d 3d 2f 70 1f be d7 1a 8b 3d
       -0.020316705 0.042339932 -0.15570138 0.06792229
000310 a3 ac ab bd 7f 38 c9 be 93 57 c3 3d e4 ed 4a be
       -0.08382537 -0.39300916 0.09538188 -0.1981731
000320 1d fb f7 3d 02 a9 8a 3c 7b a4 c5 be 8c aa 9b be
       0.12108443 0.016926292 -0.3860205 -0.30403554
000330 c0 be 38 be c3 57 9c 3d f2 6f 4d 3d b0 b0 05 bf
       -0.18041515 0.07633927 0.050155587 -0.5222273
000340 fe 3e 22 3c 5c 6c 98 3d 6d ff d9 3d 67 38 98 be
       0.009902714 0.07442543 0.10644422 -0.29730532
000350 2e fa 44 3d 34 dc c7 be ef 0a 8d 3c 3c 27 a3 be
       0.048090152 -0.3903519 0.017217128 -0.3186587
000360 3d 4a 0a 3e 09 e4 e3 bd c5 9a e8 be d9 e2 c3 3d
       0.13504882 -0.11127479 -0.4543058 0.09564752
000370 cb 53 d5 be 92 6e e8 3d 88 9b c8 be 2b 48 ba bc
       -0.4166549 0.113492146 -0.3918116 -0.02273949
000380 ad 2d 5a be a6 d0 41 3e fe 57 20 be f5 b5 bd bd
       -0.21306486 0.1892725 -0.15658566 -0.09263221
000390 85 53 d6 be 77 b1 db bb 4d 43 14 3d 34 2c 61 be
       -0.41860595 -0.006704505 0.036196996 -0.21989518
0003a0 16 e8 95 3d bd 9f dd 3c 07 76 2a be 62 7a f6 bd
       0.073196575 0.027053708 -0.16646586 -0.120350614
0003b0 94 d7 a9 be f5 79 c7 3c aa dc c0 be a9 05 9e bd
       -0.33172286 0.024350146 -0.37668353 -0.07715923
0003c0 f9 b2 e7 3d 03 7c cc be 6c 5a ba bd b3 9a f9 bc
       0.11313433 -0.39938363 -0.09099278 -0.030469274
0003d0 39 b9 08 bf 75 db 3e be 04 16 13 3e 1a e9 b8 3d
       -0.5340763 -0.18638404 0.14363867 0.090288356
0003e0 8a 7f 02 3e 26 01 87 bd be 4d 9b bc fa 0f b9 bd
       0.12743965 -0.06592016 -0.018957969 -0.090362504
0003f0 c5 55 d3 bd 71 96 fb 3d 29 b8 08 bc 67 33 89 be
       -0.103190936 0.12284554 -0.008344688 -0.2679703

fc4.bias f4 [10]
000000 e8 97 3f be 9c 3a 15 be 94 14 11 3e 29 80 14 be
       -0.18710291 -0.14573139 0.14168006 -0.14502014
000010 71 8a 7a bd e1 e1 e8 3d ad 61 e5 bd da 62 eb bd
       -0.061167184 0.11371208 -0.11200271 -0.11493464
000020 a5 a9 c8 3e fb 21 0e 3e
       0.39191929 0.1388015
